…
lQbIAoLo7XgQGGe25Oe7BWvrY1Ig=s64","userId":"10787206470624102626"}},"outputId":"3941c920-c1bf-4be1-eccc-e7b540dafe3e"},"source":["model.summary()\n","predicted = model.predict(X_test)\n","print(metrics.classification_report (Y_test, np.argmax(predicted, axis = 1)))"],"execution_count":null,"outputs":[{"output_type":"stream","text":["Model: \"sequential\"\n","_________________________________________________________________\n","Layer (type)                 Output Shape              Param #   \n","=================================================================\n","dense (Dense)                (None, 128)               14015232  \n","_________________________________________________________________\n","dropout (Dropout)            (None, 128)               0         \n","_________________________________________________________________\n","dense_1 (Dense)              (None, 128)               16512     \n","_________________________________________________________________\n","dropout_1 (Dropout)          (None, 128)               0         \n","_________________________________________________________________\n","dense_2 (Dense)              (None, 128)               16512     \n","_________________________________________________________________\n","dropout_2 (Dropout)          (None, 128)               0         \n","_________________________________________________________________\n","dense_3 (Dense)              (None, 2)                 258       \n","=================================================================\n","Total params: 14,048,514\n","Trainable params: 14,048,514\n","Non-trainable params: 0\n","_________________________________________________________________\n","              precision    recall  f1-score   support\n","\n","           0       0.99      1.00      0.99     52750\n","           1       0.96      0.75    
…
